pose_classifier.tflite (tflite, 12052 bytes, 4 tensors)

dense_12/bias f4 [64]
000000 2b 3a b6 bd 98 fe cd 3b 49 4e 03 bd d0 07 9c 3c
       -0.088978134 0.0062864535 -0.03205708 0.019046694
000010 7b 59 9b bd 87 f9 b1 bd d0 15 ac 3d c6 1f 33 bd
       -0.075854264 -0.08690172 0.08402598 -0.043731473
000020 bf 56 95 3c cd 6e c9 3a 34 25 03 3d 7c 6b 50 bc
       0.01822984 0.0015368104 0.0320179 -0.012720939
000030 f5 3c 2c 3c 2f c1 e6 bd 6c f4 02 be 45 1f 80 3c
       0.01051258 -0.112673156 -0.12788552 0.01563991
000040 6d be 41 bc f6 cd 46 bc 59 ab 21 bd 56 63 22 bd
       -0.011825186 -0.012134066 -0.03947005 -0.039645515
000050 e1 13 a2 bd e8 b5 d8 3c 32 50 57 3c cb bb 01 bd
       -0.07913948 0.026453927 0.013141679 -0.031673234
000060 4e a4 f5 3c 70 8d 46 be c1 77 03 be af c6 50 bd
       0.029985573 -0.19389892 -0.12838651 -0.05097073
000070 a6 bd 70 bd 39 0e df bc fc 51 a5 bd 2d ee 6d bd
       -0.058774613 -0.027228462 -0.08072278 -0.05808847
000080 d8 13 96 bd 51 7d 44 bd 4e d6 18 bd 04 05 80 bc
       -0.07328004 -0.047971074 -0.037313752 -0.015627392
000090 71 68 fd 3b 57 60 df bb 22 42 f4 bc f1 4f 44 bd
       0.0077333977 -0.0068169045 -0.02981669 -0.0479278
0000a0 d1 c1 52 bd 37 11 fe bd 6a fd d8 bd 62 23 82 bb
       -0.05145437 -0.12405627 -0.1059521 -0.003971503
0000b0 f1 c0 62 bd 2a 41 7a 3d fe 43 06 be 3e e9 0e bd
       -0.055359785 0.0610973 -0.13111874 -0.034890406
0000c0 da b8 05 be 61 de b7 bc 8d 76 b0 bd dd 47 3a bc
       -0.13058797 -0.022444906 -0.08616362 -0.011369673
0000d0 01 cd 3d 3d a5 76 65 3d 05 7b 65 bd 4e 1d 5b bd
       0.046338085 0.05602135 -0.056025524 -0.053494744
0000e0 a2 d1 65 3c 4e 88 1b 3d 68 3e df 3b 08 3f 9a bd
       0.014027031 0.037971787 0.0068128593 -0.075315535
0000f0 b7 1b 87 3b a2 bc a7 bc b3 07 20 bb 67 65 35 3b
       0.004123177 -0.02047569 -0.0024418652 0.0027678849

sequential_4/dense_12/MatMul f4 [64, 34]
000000 f8 33 cd bc 15 b0 26 3e 75 81 47 be 45 bc 48 bd
       -0.025049195 0.16278107 -0.19482978 -0.049007673
000010 37 70 94 be 19 3e 3a be 95 6a 90 3e fa f5 89 3b
       -0.28991863 -0.18187751 0.28206316 0.004210231
000020 2e 57 80 3d 4f 05 3b 3e bf 08 92 be 44 44 48 3e
       0.06266628 0.18263744 -0.28522298 0.19557291
000030 6a da 22 be c8 f0 d4 3c fd 09 42 bd 9c bd 28 bd
       -0.15903631 0.02599372 -0.047372807 -0.04119645
000040 67 03 d2 bd 9c 11 2c 3e 9e 2c 81 be a5 fa c5 3d
       -0.10254555 0.16803592 -0.25229353 0.09666947
000050 3a 81 b5 3e f2 03 26 3b 36 bb 94 be 22 67 83 be
       0.35450155 0.0025331941 -0.2904908 -0.25664622
000060 46 22 01 bd 8b 64 9b be ff 4f d1 bd 0c 85 a0 3c
       -0.031526826 -0.30350146 -0.10220336 0.019594692
000070 8b 7f 76 bd bf 6d 15 3d 97 e7 8f 3c a1 b4 ca 3d
       -0.06018023 0.036481615 0.017566485 0.098977335
000080 12 24 9f 3b 94 35 07 be 7d 8b 2e 3e 8c 0b 12 be
       0.004856595 -0.13204032 0.17045398 -0.14262217
000090 21 c7 ad 3d ec cf c8 bd 9c d3 18 bd d2 ba 2e 3e
       0.084852464 -0.09805283 -0.03731118 0.17063454
0000a0 29 0f 93 3c c3 a2 86 be 1c 80 b9 3a ea 71 9c 3c
       0.017951565 -0.26296052 0.001415256 0.019097287
0000b0 97 a0 93 bd 34 8d cb 3d 96 b8 6f bd 97 47 9b 3d
       -0.072083645 0.09939042 -0.058525644 0.07582014
0000c0 68 d5 f5 3d cb 31 db 3d e3 05 b7 3d b5 07 91 3e
       0.12003595 0.10702857 0.0893667 0.28326192
0000d0 f3 a7 e7 3d 87 e8 88 be 1f 0b 41 be 71 d8 52 be
       0.11311331 -0.26739904 -0.18851899 -0.20590378
0000e0 0a 05 17 be fb 54 4c 3e 40 d2 c1 bd b9 c3 80 3e
       -0.14748016 0.19954292 -0.0946393 0.25149325
0000f0 b0 92 a7 3e 2f fa c2 3c 2c b0 a6 3c e9 6a 96 bd
       0.327291 0.023800937 0.020347677 -0.0734461
000100 5b 3b c9 3d 75 3f a3 be c6 70 2d 3e eb d9 0c bd
       0.09825774 -0.3188435 0.16937551 -0.03438751
000110 45 95 ff bc 45 f8 3b bd 41 84 d9 3d 98 7c 85 3d
       -0.031199107 -0.045891065 0.106209286 0.06517905
000120 af 85 96 bd 85 33 20 3d 15 bf 32 bd c4 b2 81 3e
       -0.07349717 0.039111633 -0.04363926 0.253317
000130 6e f9 c2 bd af a8 13 3e 7c 4a 35 bd b7 37 28 be
       -0.09520231 0.14419816 -0.044260487 -0.16427504
000140 4d 6b 8a bd 14 59 44 3d c3 5e 22 bd e5 6e f0 bd
       -0.06758747 0.047936514 -0.039641153 -0.117399015
000150 74 83 8e 3d ff 24 de be 09 6c 21 be 74 48 85 bd
       0.069586664 -0.433876 -0.15763868 -0.0650796
000160 8b 88 94 bc 32 16 84 3e 2a 5c 4c 3e 96 66 26 3e
       -0.018131515 0.25798184 0.19957033 0.16250071
000170 7f ad 0b 3e 17 e0 c9 3e 57 a6 b7 3e af 2a 69 bd
       0.13640402 0.3942878 0.35869095 -0.056925472
000180 16 64 2b be 31 ef 50 be 42 86 8e be fb 51 79 3d
       -0.16737399 -0.20403744 -0.27836806 0.0608692
000190 1c 20 81 be 79 9a 36 3e 60 4b 78 3e 3e 03 0b be
       -0.2521981 0.17832364 0.24247503 -0.13575456
0001a0 bb d1 7b 3e 8b db 2a be 73 73 4f 3e 6c 86 11 3e
       0.24591725 -0.16685311 0.20258884 0.14211434
0001b0 fc 89 9d 3e 3e ce 7a 3d 42 79 81 be 54 7b 96 bd
       0.30769336 0.061231844 -0.25287825 -0.07347742
0001c0 35 7a e9 bc b6 c7 d8 3d 8f 31 3b 3d 58 c7 e6 bc
       -0.028500656 0.10584967 0.04570156 -0.028171226
0001d0 3a 85 61 3e aa 02 32 bd 5c 2e f3 3d ea ec aa 3c
       0.22023478 -0.043459572 0.11874077 0.020864923
0001e0 6c 38 3c be 55 85 96 3e e1 07 db 3c 99 bf 4f 3e
       -0.18380898 0.293986 0.026737155 0.20287932
0001f0 09 88 1f 3e d6 83 4a 3d c0 2b ba 3d 3b 88 a5 3c
       0.15579237 0.049442135 0.09090376 0.020206561
000200 d7 73 7f bd 84 4d 8b 3c ef 0e e1 3d 45 17 c5 bc
       -0.062366333 0.017004736 0.109891765 -0.024058947
000210 b3 ee 78 3e 37 a4 61 3d a9 5a ef bc e8 30 5a be
       0.24309807 0.055088248 -0.029218035 -0.21307719
000220 1e f2 5a 3e 37 9c 82 bd af 7f 45 bc 50 2d 6a be
       0.21381423 -0.06377452 -0.012054368 -0.22868848
000230 39 04 92 be 25 09 57 3e 54 a1 3c be 9b 36 8c 3d
       -0.28518847 0.20999582 -0.18420917 0.06846353
000240 97 a1 8b 3e cb 07 74 3e c2 56 5c 3e 33 68 c0 bc
       0.2727172 0.23831098 0.2151747 -0.023487186
000250 20 6a b3 bc f5 11 75 be 27 8a 93 bd 10 78 94 bc
       -0.02190119 -0.23932631 -0.07204085 -0.018123657
000260 43 d2 ce 3d 54 c4 98 3d ac b5 22 3d d5 46 72 be
       0.10098698 0.074593216 0.039724037 -0.23659833
000270 59 1e 3a 3e b1 89 5d 3c 1f 2d a3 3d 04 b1 b5 be
       0.18175639 0.013521598 0.079675905 -0.35486615
000280 c0 d6 e7 bd 29 68 54 be 56 3b 83 be 33 78 02 be
       -0.11320257 -0.20742859 -0.25631207 -0.12741165
000290 29 06 27 3d 2f 35 d7 3c 4a 21 12 be fe 63 b7 bd
       0.04077736 0.026270477 -0.14270511 -0.08954619
0002a0 a8 f6 ba 3c a6 de 86 be ab d9 c7 3d e5 9b e5 3d
       0.022822693 -0.26341742 0.09758314 0.11211375
0002b0 ab 6c 38 bd f8 4c 05 be b8 7e ce 3d 97 14 88 3e
       -0.04502551 -0.13017642 0.100827634 0.2657821
0002c0 74 bc 9a be a5 e1 12 bd 4c a2 89 be 75 7d dd 3d
       -0.30221903 -0.035859723 -0.26881635 0.10814945
0002d0 53 c6 f5 3d dc 22 3b 3a e0 09 a7 bd 9b 6a 4e 3e
       0.12000718 0.00071386783 -0.081561804 0.20157854
0002e0 8f e8 23 bd cc a3 9f 3c 53 c1 a6 be a5 3f f1 be
       -0.040016707 0.019487284 -0.3256937 -0.4711887
0002f0 a8 2c 2b 3e 84 ac 88 bd 33 5f 09 3d 1c 60 dd 3b
       0.16716254 -0.0667353 0.033538055 0.006755842
000300 3a 09 65 bd 43 7a 88 3e 11 e9 53 3d 4a 23 c1 bd
       -0.055917002 0.26655778 0.05173594 -0.09430559
000310 4b d5 5d be 5c 4b 93 3e a6 ba 12 be 86 d7 67 3b
       -0.21663396 0.28768432 -0.14329013 0.0035376265
000320 73 10 51 bc ad cd 58 3e ac 29 57 be 3b ef 0b be
       -0.012760269 0.21172209 -0.2101199 -0.13665478
000330 38 3c cd bd 77 2a 7a be 8d 42 01 3e ca 07 f1 bd
       -0.100212514 -0.24430262 0.12623043 -0.11769064
000340 8f 88 8a 3e 1c 39 42 3e 78 16 d1 3d de ff f1 bd
       0.2705731 0.18967098 0.10209364 -0.11816381
000350 b6 e0 42 be d4 ff 1e be d4 23 ed 3c c3 6e 43 3e
       -0.19031033 -0.15527278 0.028947748 0.19085221
000360 a1 b9 94 be cd ab 1b be d2 0d 53 3d c0 5f 38 bd
       -0.29047874 -0.15202256 0.051526852 -0.04501319
000370 8f ec a4 3d ae 2d 55 be 68 cc 57 3c ce 01 64 3e
       0.080529325 -0.20818207 0.013171293 0.22266313
000380 8a e1 17 bc f3 14 88 3e 24 a9 1f be ef c8 34 bd
       -0.009270081 0.26578483 -0.15591866 -0.044136938
000390 54 b6 bc 3d 87 13 e2 bd cb e4 29 3e bd 2f c1 bd
       0.09214464 -0.11038881 0.16591184 -0.094329335
0003a0 b6 3c a1 be 99 17 26 be 3c 7c fd 3c 47 bf 70 3b
       -0.3149163 -0.1621994 0.030943029 0.0036735104
0003b0 cf 1e bf bd 60 5b 1f bd 33 9d dc 3c 97 07 60 3e
       -0.09332048 -0.0389055 0.026930427 0.21877895
0003c0 48 6a 60 be 9c 77 62 be 79 c5 ef 3d 10 d8 b2 3c
       -0.21915543 -0.2211594 0.11707587 0.021831542
0003d0 b1 82 04 be 1b b8 12 3e 45 b6 9b 3d d8 10 d7 bd
       -0.1294048 0.14328043 0.076031245 -0.105012596
0003e0 46 c1 c9 3d 7e 34 5b be 35 15 9c bd 71 00 09 be
       0.09851317 -0.21406743 -0.076212324 -0.13379075
0003f0 1f 49 ae 3d 60 cc ba bd 4f a3 b4 bc 4f eb 8f be
       0.085100405 -0.09121013 -0.022050528 -0.28109214

sequential_4/dense_13/MatMul;sequential_4/dense_13/BiasAdd f4 [5]
000000 df ef cd 3f c0 40 b6 bf c4 06 96 3f ca 27 19 40
       1.6088828 -1.423851 1.1720815 2.3930535
000010 c3 2e 86 3f
       1.048302

sequential_4/batch_normalization_4/batchnorm/mul_1;sequential_4/batch_normalization_4/batchnorm/add_1;sequential_4/dense_13/MatMul;sequential_4/dense_13/BiasAdd f4 [5, 64]
000000 d3 c6 12 41 17 ca aa c0 8b e6 b5 c0 eb ab 78 40
       9.173541 -5.337169 -5.6843925 3.885493
000010 74 3e 16 c1 f4 6b d3 3e 48 74 1f bd c6 bb 85 bf
       -9.390247 0.412933 -0.038929254 -1.0447929
000020 04 d6 35 40 cb a1 01 3d a2 66 b5 41 25 a7 dc c0
       2.8411875 0.03164844 22.675114 -6.8954034
000030 8a 3e 9e bf 98 92 4d be 01 8a 59 bf 87 7b 27 c0
       -1.2362835 -0.20075452 -0.849762 -2.6169145
000040 ca de 0f c1 3c 4a c3 3f 30 79 6f 40 6a be 39 40
       -8.991892 1.525703 3.7417717 2.902247
000050 c2 10 2e c0 b5 00 68 c1 d9 fe 6b bf 44 58 8a 40
       -2.7197728 -14.500173 -0.9218574 4.3232746
000060 0f 1c 05 c1 fb d2 8b 40 d6 4a 60 c0 f1 39 dc bf
       -8.31935 4.3695045 -3.5045676 -1.7205182
000070 b6 66 47 c0 03 90 78 40 8c fa a1 c0 6a 59 16 c1
       -3.115644 3.8837898 -5.0618343 -9.39683
000080 2c bb 09 bf ce 96 4a bf bc a9 34 c1 9f b9 31 c1
       -0.53801227 -0.7913636 -11.291439 -11.107818
000090 49 86 3f bf e6 7c ef 3e b9 66 01 c0 40 5f c6 bf
       -0.7481428 0.46774977 -2.0218947 -1.5497818
0000a0 d9 73 ba c0 aa f8 e7 3f de 2d c2 40 7e 0c 43 c0
       -5.8266416 1.8122761 6.068099 -3.0476375
0000b0 7c 24 75 41 24 f4 12 c0 be 05 5c 40 02 73 e4 c0
       15.321407 -2.2961512 3.4378505 -7.139039
0000c0 59 f7 4d 3f 90 e8 8f 40 58 a7 51 c0 5c e8 00 3f
       0.8045555 4.497139 -3.2758389 0.5035455
0000d0 98 d9 f4 3f 34 fd 5a 3f ee 65 2b 3e 4e 31 8b 40
       1.9128904 0.8554261 0.16738102 4.3497686
0000e0 7d 4a 51 bf 3e 05 8f c0 d9 6b ee c0 d9 bf fb bc
       -0.81754285 -4.46939 -7.450665 -0.030731129
0000f0 38 5c ed c0 bf c9 4a 41 82 65 81 40 98 cc e6 c0
       -7.417507 12.674254 4.043641 -7.212475
000100 ca fb 6d 40 86 da a3 40 6a 50 cc 3e 7e 13 2e 40
       3.718493 5.120425 0.399051 2.7199397
000110 41 78 3d bf b3 d7 16 c0 de 08 51 3f 40 48 25 c0
       -0.7401162 -2.3569152 0.81654155 -2.5825348
000120 b1 e2 b2 3f 0a 45 a5 40 d9 c2 36 3f 73 52 1d c1
       1.3975431 5.1646776 0.71391064 -9.832629
000130 78 63 ff bf a5 fc cc c0 b6 6b bf bf aa 4d 28 41
       -1.995223 -6.4058404 -1.4954746 10.518961
000140 fa 55 ae bf 0d bb 92 c0 39 09 3c c1 47 d3 26 c1
       -1.3619988 -4.5853333 -11.752252 -10.426581
000150 77 e6 91 bf 3e 3e a2 c0 f7 6f f1 3f e7 90 b1 c0
       -1.1398457 -5.070098 1.8862294 -5.5489383
000160 fb 96 31 41 de 24 93 bf 93 c0 d3 bf f5 17 aa 41
       11.09936 -1.1495626 -1.6543144 21.261698
000170 3e a8 ee 40 8f 17 ae 40 fa 76 d5 40 f9 40 07 41
       7.4580374 5.440376 6.6707735 8.453362
000180 6d 0f 85 c0 7e b1 62 3f a7 04 0b 41 02 4b 1b 41
       -4.158133 0.8855208 8.688636 9.705812
000190 5e c0 2c 3f 2b 4d 6f bf f5 c2 4a be 37 ac 2c 41
       0.6748103 -0.93477124 -0.19800933 10.792045
0001a0 d3 cd 2f c0 b8 b9 0f 3c ea 54 be c0 ff 1f 7b 40
       -2.7469375 0.008772306 -5.9478655 3.923828
0001b0 33 a3 a2 c0 64 94 b5 3f 3a f5 04 bf 3d 7f 06 c1
       -5.082422 1.418591 -0.51936686 -8.406064
0001c0 e1 97 3b 3f 17 4a 91 40 57 e5 c3 c0 67 8d 42 c0
       0.73278624 4.540294 -6.1217456 -3.0398805
0001d0 c8 f1 e0 bf d2 84 29 40 a0 b2 a8 3f 82 0e 1e 40
       -1.7573786 2.6487317 1.3179512 2.4696355
0001e0 8b 19 0b c0 52 9a 9c bf 71 40 da 40 00 51 df 3f
       -2.173434 -1.2234595 6.8203664 1.7446594
0001f0 1c b7 b1 40 4b c8 a9 bf ea 47 a3 40 44 e0 b3 40
       5.553602 -1.326425 5.1025286 5.621126
000200 2b 06 6d 3f 63 92 3d c0 9c 3b 43 40 95 7e 17 c0
       0.92587537 -2.9620597 3.0505133 -2.367101
000210 91 85 1f 41 29 10 d1 bf 1e b7 46 be f3 e1 38 40
       9.970109 -1.6333057 -0.19405791 2.8887908
000220 a3 02 52 40 93 ca 29 c0 e5 f5 58 c1 39 6a 01 c0
       3.281411 -2.6529891 -13.560033 -2.0221083
000230 ed fa 1e 40 46 97 d8 40 5c b7 04 c0 70 77 25 c0
       2.4840653 6.768466 -2.0736914 -2.585415
000240 9c bb 03 41 98 35 e6 c0 c2 1e 56 41 fb 83 66 c0
       8.233303 -7.194042 13.382509 -3.6018054
000250 ec 03 d2 be 2e 1a 18 41 0d 52 8a 40 5a 73 39 c0
       -0.41018617 9.506392 4.322516 -2.8976655
000260 0a ba 3b c0 ee da 50 c0 cf 0c 97 40 80 b6 aa c0
       -2.93323 -3.2633624 4.7203135 -5.334778
000270 b7 67 d3 40 ed da 8f 3f 81 57 40 c0 8c d7 90 c1
       6.6064105 1.1238686 -3.0053408 -18.105247
000280 32 91 d6 40 3d 47 d8 be 5d 3f 98 c0 bf 29 ba bf
       6.705224 -0.4224185 -4.757735 -1.454399
000290 1b 4f 93 3f 41 b3 69 bf f2 dd 86 bf d0 ac 87 c1
       1.1508516 -0.91289145 -1.0536482 -16.959381
0002a0 01 5e a1 40 b5 32 d0 be 42 c2 bf c0 a5 a4 07 40
       5.042725 -0.40663686 -5.992463 2.119424
0002b0 84 66 63 c1 79 1d 09 bf 9d 5a f8 bf 2a 2d 36 41
       -14.212528 -0.53560597 -1.9402653 11.386026
0002c0 24 b8 91 c0 6e a3 0e 40 0a 48 cb 40 02 40 aa 3f
       -4.553728 2.228725 6.352544 1.3300784
0002d0 6f 0b 24 40 4b 6d a3 40 6e df 90 bf 4c 8a b9 c0
       2.5631979 5.1070914 -1.1318185 -5.798132
0002e0 1b dc cc 40 74 ec 0d c1 02 71 c0 c0 44 a5 d1 bf
       6.4018683 -8.870228 -6.013795 -1.637856
0002f0 64 06 c6 bf d2 4d fe c0 9e c4 d2 40 86 24 84 40
       -1.54707 -7.9469995 6.586501 4.1294584
000300 a1 97 26 bf 76 c4 b0 40 82 65 00 c1 2d cb f1 3f
       -0.6507512 5.523982 -8.024782 1.8890129
000310 25 fa 5b 40 8f 8e 41 3f a6 44 be bf 7e f0 be 3f
       3.4371426 0.7560815 -1.48647 1.4917142
000320 58 88 4f c0 4c 6b 9e c0 64 d8 d5 c0 5b 5e f4 40
       -3.2426968 -4.950598 -6.682665 7.636518
000330 4e be de 3f c1 ca be 3f 21 b8 07 40 24 20 13 40
       1.7401826 1.4905626 2.1206133 2.2988367
000340 1d 3a 16 c0 ed b2 d5 c0 a0 8b f3 40 da 3b 5b c0
       -2.347297 -6.6780915 7.610794 -3.425528
000350 fa 23 a0 3f 13 4e 38 c1 5a 24 89 c0 5d dd 00 c1
       1.2510979 -11.519061 -4.2856874 -8.054044
000360 c1 c7 34 3d 47 c6 80 40 cc a8 38 41 42 35 a7 c0
       0.044135813 4.024204 11.54121 -5.225251
000370 75 87 80 c0 9b 24 ef c0 f4 53 ec bf df d1 88 bf
       -4.0165353 -7.4732184 -1.846312 -1.0689048
000380 9a fb 7f c0 38 f7 d9 3f ce 1b c5 40 f7 36 50 c1
       -3.9997315 1.702857 6.159644 -13.013419
000390 bf aa 9b 3f 37 a2 8f bf 8f 79 b1 3f 53 4a a2 41
       1.2161483 -1.1221379 1.3865222 20.286291
0003a0 ee 9a ac be 08 91 2c 3f 0d 31 37 41 62 c6 1c bf
       -0.33711952 0.674088 11.449475 -0.6124021
0003b0 81 a7 e0 c0 94 f6 0d c0 55 ce 22 40 fa b2 ff c0
       -7.0204473 -2.218175 2.5438435 -7.9905977
0003c0 e4 12 3c 40 71 57 4c 41 03 ba a1 3e c7 47 8f c0
       2.938653 12.771348 0.31587228 -4.477512
0003d0 fa 29 07 c0 28 a4 d1 c0 3f 78 d1 3f c2 7d af c0
       -2.111937 -6.5512886 1.6364821 -5.4841013
0003e0 d3 c5 7a c0 82 ca 41 c0 9d be 53 c1 1e 83 2e bf
       -3.9183242 -3.027985 -13.234036 -0.6816882
0003f0 ac 64 9e be 19 b2 91 c1 36 44 e2 c0 a4 6b f5 bd
       -0.30936182 -18.211962 -7.0708265 -0.119834214
